…
pub.execute_input":"2025-04-09T11:27:16.549862Z","iopub.status.idle":"2025-04-09T11:27:17.117939Z","shell.execute_reply.started":"2025-04-09T11:27:16.549832Z","shell.execute_reply":"2025-04-09T11:27:17.117063Z"}},"outputs":[{"execution_count":41,"output_type":"execute_result","data":{"text/plain":"==========================================================================================\nLayer (type:depth-idx)                   Output Shape              Param #\n==========================================================================================\nDeepSpeech                               [298, 4, 35]              --\n├─Sequential: 1-1                        [4, 512, 298]             --\n│    └─Conv1d: 2-1                       [4, 128, 298]             49,280\n│    └─BatchNorm1d: 2-2                  [4, 128, 298]             256\n│    └─ReLU: 2-3                         [4, 128, 298]             --\n│    └─Conv1d: 2-4                       [4, 256, 298]             98,560\n│    └─BatchNorm1d: 2-5                  [4, 256, 298]             512\n│    └─ReLU: 2-6                         [4, 256, 298]             --\n│    └─Conv1d: 2-7                       [4, 512, 298]             393,728\n│    └─BatchNorm1d: 2-8                  [4, 512, 298]             1,024\n│    └─ReLU: 2-9                         [4, 512, 298]             --\n├─Dropout: 1-2                           [4, 298, 512]             --\n├─LSTM: 1-3                              [4, 298, 512]             4,730,880\n├─Linear: 1-4                            [4, 298, 35]              17,955\n├─LogSoftmax: 1-5                        [4, 298, 35]              --\n==========================================================================================\nTotal params: 5,292,195\nTrainable params: 5,292,195\nNon-trainable params: 0\nTotal mult-adds (G): 6.28\n==========================================================================================\nInput size (MB): 0.61\nForward/backward pass size (MB): 22.30\nParams size (MB): 21.17\nEstimated Total Size
…
